parameters4.npz (npz, 1904 bytes, 2 tensors)

Theta2 f8 [13, 1]
000000 48 ae 87 87 c5 4e 00 40 6f a9 98 ca a2 f9 16 c0
       2.0384626949578752 -5.743785062377682
000010 dd e7 ed 7c f1 13 ee 3f 48 34 d0 da c6 ca 1c c0
       0.9399344863916174 -7.198024195630815
000020 1c ec 26 83 d4 d7 01 40 d9 78 65 7f fb cf 0d 40
       2.2303858038190025 3.7265539124337974
000030 03 2a eb ba b8 7d 01 c0 9a 62 cc 43 31 89 f2 bf
       -2.186387501050605 -1.1584942482351495
000040 63 3e d6 6f 61 1a 24 40 94 4f fd 68 da c8 1f c0
       10.051524634268565 -7.946145668469303
000050 25 1b ec 3b 46 a1 1f c0 55 93 7f 2a 4e 2b 17 c0
       -7.907494484220284 -5.792290367161361
000060 37 1b 5d c8 d2 15 10 40
       4.02131188457752

Theta1 f8 [9, 12]
000000 c7 eb f9 b8 63 d6 e0 3f b6 e0 6c e1 3e 5f ca 3f
       0.5261705982987842 0.20603166586966432
000010 c6 60 d5 50 f4 a0 ff bf 62 69 ef eb c6 e0 34 c0
       -1.9767954976614859 -20.878035303068266
000020 5b 0d 03 80 db a7 e5 3f e0 17 8b 79 cb 92 2b 40
       0.676740407965933 13.78670863936344
000030 7f d7 dd c1 8f 96 ce bf 4f bb b5 ff d8 06 14 40
       -0.23896977392331206 5.006687159983655
000040 3c cb 14 f3 d0 75 34 c0 8d 02 0e 38 43 cd cc 3f
       -20.460219566895134 0.22501411664054097
000050 6e 9b a4 2e 4f 52 b7 bf 99 9a 89 f5 f6 03 cc bf
       -0.09109969032998119 -0.2188709925569199
000060 af 77 2a a8 e2 cd f9 bf 5c a5 4a 88 b3 1d fb bf
       -1.6127649849872616 -1.6947512935533586
000070 ce e8 f8 a9 e3 a1 de bf 70 2d 36 25 71 0a 26 40
       -0.47863093947274826 11.02039448057505
000080 56 c0 67 cf c9 0a 05 40 83 56 11 32 22 e3 ef bf
       2.6302677348649395 -0.9964762666592865
000090 90 98 18 2b f3 f8 04 c0 67 e3 a3 69 3a 13 11 c0
       -2.6215575568085754 -4.268777514102886
0000a0 cd cc fd 8b 6d f0 f7 3f 77 f3 49 2c 04 a5 02 c0
       1.496198222009116 -2.330574365622336
0000b0 36 91 06 11 d0 33 f2 3f 33 02 70 0a 73 6a d1 3f
       1.1376495995583134 0.2721221544198073
0000c0 3e d8 dc a9 2a 5a d7 3f 9c 24 a5 81 b5 7b e8 3f
       0.3648783358397657 0.7651011974459325
0000d0 07 4e 6f 4f 45 f4 dc 3f ab 83 76 fe 1b 33 e9 3f
       0.4524091029863659 0.7874889345149446
0000e0 1b 4e ce 16 cf 58 dc bf 22 04 2c 87 3e 8f ee 3f
       -0.44292046763550424 0.9549858703686633
0000f0 48 10 fb f1 2b 41 c9 bf 4a 04 7e e6 cd c7 f0 3f
       -0.19730138125862795 1.048780346260417
000100 2f 20 06 e5 cb 80 bc 3f 9d 48 5e 53 c9 1a 30 40
       0.11134027806667811 16.1046344857392
000110 d0 a4 87 86 7a f4 2d c0 dd cc 6c 73 d9 7d e3 bf
       -14.977497295435029 -0.6091124777216482
000120 a6 cc 60 f2 1f 27 02 40 43 58 d4 18 83 19 e2 bf
       2.269103902415355 -0.5656142697287198
000130 b3 5e e5 12 09 89 d2 3f 02 37 9f db ad c4 e1 bf
       0.28961397977171116 -0.5552586831560975
000140 5d 4e 0b 9f 9c 8e b9 3f f2 3a 0e d5 a7 1f f7 bf
       0.09983233340181515 -1.4452284166797509
000150 7d a3 b6 24 93 6e d1 bf 55 ac 29 67 d4 4d d7 3f
       -0.27237394891067607 0.36412534784785083
000160 45 c2 21 ce 98 6e c0 bf 1c 77 0e ca af 16 00 40
       -0.12837514939339392 2.0110774789490176
000170 ff ac 42 d9 34 19 08 40 3e b0 8e 26 05 55 99 3f
       3.012307832095416 0.024738388517718805
000180 92 68 ed 10 85 09 c5 3f cf 49 f3 e3 a1 f6 29 40
       0.16435302092105936 12.9817038759692
000190 21 0b 51 9c 96 e8 e3 3f a3 fb 91 aa bc 1a d6 3f
       0.6221421292360426 0.3453818956112917
0001a0 e8 0e 58 8b 5c ae d7 bf 78 a6 d9 6a 75 f7 d6 3f
       -0.3700171814709692 0.35885367807950486
0001b0 0f 64 17 a2 7d 57 e2 bf 21 24 19 31 bc 7d e6 3f
       -0.5731800237509804 0.7028485259007803
0001c0 94 2a f9 54 f8 9b ac 3f 21 66 7a d1 1b 74 c5 3f
       0.055877457020490656 0.1676058552591693
0001d0 19 ee cd c6 45 09 c5 bf f9 e1 24 a0 dd fa 28 c0
       -0.1643454762196235 -12.4899721188567
0001e0 18 bd 3e 95 5c 11 fc 3f 9c c0 2a 3b 7d a6 fd 3f
       1.7542386846433313 1.8531467734538074
0001f0 be 79 8f 0f 7c 1d d3 3f 43 a7 08 5a a1 b5 ef bf
       0.29867459792685824 -0.9909216650459957
000200 4d 25 1e 2c ff 22 f7 bf 45 23 e3 db c2 bb de 3f
       -1.4460441325521345 0.48021003220906194
000210 7d c4 fa 3b 61 70 ea bf 83 83 a4 4c ec 61 ee 3f
       -0.8262182399249834 0.9494534966398621
000220 c2 98 e4 fd 0d d9 d9 3f f3 a9 e8 f5 de 07 d6 3f
       0.4038729648040197 0.34423040403876753
000230 eb 6c 18 3a 77 8c c2 3f 20 c6 0c f6 cd b3 00 40
       0.14491167389574086 2.0877951834343236
000240 12 df bd e9 08 68 80 3f 64 0a 80 8f 1a 91 d6 3f
       0.008010930665235647 0.35260643018424376
000250 08 04 cf 15 33 4c e6 3f 5e 41 09 f4 24 f4 b8 3f
       0.6968017030668543 0.09747534711755665
000260 c0 31 2c ab 9b 3a dd 3f f9 d8 6f af 5c 78 ce 3f
       0.45670215335919906 0.23804815832381346
000270 dc 63 ac 2b 2e 6b 03 40 50 9d 68 e9 f7 6c c2 3f
       2.4273341571792866 0.14395045182139166
000280 b1 e7 b9 ad a5 0a 94 3f 2f 62 0d 08 f2 f1 c3 3f
       0.019571865776448486 0.1558210887258311
000290 4e b2 28 dd 6c 98 cd bf e3 7c 97 c4 1c ad d8 bf
       -0.2312141494634425 -0.385565940841799
0002a0 12 81 ee f4 df 27 04 c0 5f 2f 32 ae c2 bc eb 3f
       -2.519470132378168 0.8667920496240916
0002b0 bb 0e 66 bf ec 73 fe bf d1 af e6 7e b4 fa 03 c0
       -1.9033019520292516 -2.4974145807409305
0002c0 9f ba 98 83 85 db 05 c0 74 53 70 a8 f8 31 e6 3f
       -2.732188251589221 0.6936000146693986
0002d0 79 8e cb 96 0d 6e 03 c0 37 a0 1a f9 0d 65 ed 3f
       -2.428736856543591 0.9185857644379273
0002e0 2c 33 36 c8 3d 87 c6 3f 50 61 e5 3a fe ff ce bf
       0.17600223804438409 -0.24218728900701558
0002f0 af 2e ed 34 d9 a9 e4 bf 59 74 62 f9 35 32 d6 3f
       -0.6457334550591066 0.3468146262546888
000300 be e0 da 82 cc 8b ef bf a8 14 95 07 69 18 04 c0
       -0.9858152919541892 -2.5119190780993286
000310 f8 9e ea 6d 7e 04 e7 bf 21 d7 b4 e5 23 5c f0 3f
       -0.7192985674673471 1.022495171824126
000320 92 7a d2 27 cd 58 d1 3f 61 53 d8 0e 97 7c f0 3f
       0.2710450066460136 1.0304174976237948
000330 77 8b ff fb 38 c6 ee bf 2f c9 7e d0 93 95 d7 bf
       -0.9616970941391249 -0.36850447998871777
000340 28 3b 34 f6 f4 3d ff 3f c8 e4 f6 d9 8e 0d 01 c0
       1.9526261918396788 -2.1316201237174006
000350 59 8b f1 6c 9b 8d f1 bf ac 9a 4b c2 91 33 fc bf
       -1.0970720534903278 -1.7625901784573825
