parameters5.npz (npz, 2096 bytes, 2 tensors)

Theta2 f8 [13, 1]
0	0x400dc02eb61f6691	3.718839094956657
1	0xc0218890b36ed765	-8.766728980331843
2	0x400278ad9916a51e	2.308924861911364
3	0x3ff22398979fb5a4	1.1336904452140084
4	0x402195276f466346	8.79131648763872
5	0x3ff3bd613b3dc209	1.2337353052245155
6	0xbfd273d13be9e27c	-0.2883189282506817
7	0x3fec40f136cc0c18	0.8829275198226041
8	0xc0215f306332674c	-8.685916042235156
9	0xc021b278f267a362	-8.848579001570844
10	0x400e1889c47aea08	3.761981520653766
11	0xbfd1bfe5c4dc0a0d	-0.27733749603808705
12	0xbff5e83dbe91ccf0	-1.3691995090601345

Theta1 f8 [11, 12]
0	0xbfb0a9577a50c3f1	-0.06508394943445218
1	0xc04195999af9754b	-35.16875016384673
2	0xbfa6ac248a19bc37	-0.04428209481999839
3	0x3f83a7d07d552f53	0.009597424340107052
4	0x3f68788a7bf6ac29	0.0029871659059686096
5	0xbfb25d1a9285f948	-0.07173315121869905
6	0x3fd6496d4ed55cdd	0.34823162745074204
7	0xbfc3459870f3a315	-0.1505613852998741
8	0x4043eb756571b296	39.83952014972344
9	0x3f8a0d1c4cac7ff1	0.012720318879985345
10	0x3fac7d573cba9a63	0.05564377418823054
11	0x3fd1366bee32a94e	0.26894663106454153
12	0xbfe999e95ed00197	-0.8000380374724497
13	0x402a06a40e7ef4b1	13.012970402715242
14	0x3fe307045ac5b140	0.5946065686125976
15	0xc00060c610f4fc09	-2.047252781368574
16	0x3fe1fa54a9d3a34b	0.5618079487731874
17	0xbfe7d41be283175f	-0.7446422027648899
18	0xbfa7e9b18e1af98b	-0.04670481548008628
19	0x3fe5e5ec3fe61810	0.6843167541526345
20	0x402fb2d2da51022d	15.849264929188474
21	0xbfe2b054a79e5ff4	-0.5840247415353574
22	0xbfe390f1c62d8032	-0.6114434118899281
23	0x3ff273b9a9cbaa6f	1.1532532341613224
24	0xbfbfefb4c83c4594	-0.12475137604294267
25	0xbfb3ead7a7a5dc36	-0.07780216067281817
26	0xbf88805cae08b414	-0.011963581143470882
27	0x3fa68739ea183e20	0.04400044424630445
28	0xc0392527db0a8745	-25.145139398641977
29	0x3f9f791a18de2ee9	0.030735404746834147
30	0xbf8e56aa0c388452	-0.014813736436794542
31	0xbfc2ec195452d896	-0.14783016793598297
32	0x3fbd7f304e384100	0.11522199544583955
33	0xc03889a59760d847	-24.53768297304512
34	0x3fb97cfa7d4d22c3	0.0995632701789289
35	0xbfb47f17955dd4be	-0.08006427189487206
36	0xc0014663275d47a6	-2.1593688083020934
37	0xbff53302b0482eaf	-1.324953735925117
38	0xc011081a67818103	-4.257913224486631
39	0xc004fcb2dfb965b3	-2.6233880499318842
40	0xc011b5c88a99d4da	-4.427522817267539
41	0xc004c35d3737afeb	-2.5953926385754946
42	0x3fe61753e95e917c	0.6903476293560256
43	0xbfea221745c54243	-0.8166614878374009
44	0xbff5dfdbed42dcad	-1.367153097917064
45	0x4010bae0fa829522	4.182498850078703
46	0xc004561aefdea429	-2.542043565732929
47	0x3ff14b3adbdf8db3	1.0808666790770587
48	0xc024a1e1d08065cc	-10.316175952600041
49	0xbfab484acc9d72b2	-0.053285920598431416
50	0x3f6e2d8f6b6db703	0.00368383418702123
51	0xbfa28eac7f69368a	-0.03624476485547941
52	0xbfbfccf1c9ba00c4	-0.12422095465626898
53	0xbf758d3969fdafc3	-0.0052616350875318045
54	0xbfc399ff5c8ce683	-0.15313713091909528
55	0x3fc6517979925bd3	0.1743614047634013
56	0x3f60c673fda676ec	0.0020477548070648634
57	0xbfbbbe0781b19e71	-0.10836836735108492
58	0x4024f993864e507f	10.487453648624294
59	0x3fcbf3cbcde6b841	0.21837756685039447
60	0xbff9c89e927c6700	-1.6114793512446681
61	0xbfee39c5c318c48a	-0.9445523081286791
62	0xc00d3301c8d8ca73	-3.6499057475241954
63	0xc00a422f09ea131d	-3.282316281753437
64	0x3fe4ba1e3c0da6e2	0.6477194950977856
65	0xbff6e5bb64c23718	-1.431086915577401
66	0xbfd579b93154488a	-0.335554407284811
67	0xbfa2b0b8ce7ced2e	-0.03650453110318562
68	0xbfef5fbd21e0a44d	-0.9804368650121745
69	0xbfe5da3847050420	-0.682888163290162
70	0xbff664d32e513598	-1.399615460325867
71	0x3fd60da0f67983e8	0.34458183355132954
72	0x3fb65a6046f1d30b	0.08731652957960649
73	0xbfa3dd4a691dfe13	-0.03879768880051073
74	0xbf9175ee601419e6	-0.017051434148948184
75	0x3fa98b97132737df	0.0498931132202498
76	0xbfb18cb09f04d8ea	-0.06855300791071142
77	0xbf7bd9ccce651d2c	-0.006799507164323242
78	0x3fe026015856379e	0.5046393132522444
79	0xbf8394b0921ee095	-0.009560946902510895
80	0x3fbb96387c507b19	0.10776093516367914
81	0xbfb3cc62e24c759e	-0.07733743691320291
82	0xbfa7e785cde6d9ba	-0.04668825281571594
83	0xbfe2328401b5a822	-0.5686664613142549
84	0xbfe40a45f02b7186	-0.6262540522398445
85	0xbfc0ee8039cff5da	-0.13227846930378356
86	0xbff47a68c0106b78	-1.279885053873583
87	0xbff490ab8eee20ed	-1.2853198607645553
88	0x3fd12e52583d9d54	0.26845224969152537
89	0xbfdc48c6315f5c18	-0.441941784110385
90	0xbfd34f406cecfd19	-0.3017121375778103
91	0xbff839b9c0b5f563	-1.5140931632771177
92	0xbfce15f7347e4973	-0.23504533827924554
93	0xbfcdea2e1bf29070	-0.23370910992264582
94	0xbfe3f5ee8e292d5b	-0.6237709786013669
95	0xbfddcc06b72cb050	-0.4655777729810824
96	0x3fc092fd2e343be3	0.12948574787193853
97	0xbfbbaf17fcf37ec4	-0.10814046788754711
98	0x3f8a1e776955b1e6	0.012753422643719991
99	0xbfb85c94aba783cd	-0.09516267004757069
100	0xbfc08d6c873dfc0f	-0.1293159160959196
101	0xbfba1ec644dd3799	-0.10203208142522015
102	0xbfc5cd996adef064	-0.17033689230254645
103	0x3fd444118f063bb1	0.31665457694264904
104	0x3fb998e701315d57	0.09998935488817061
105	0xbfc0bc94e3d4f984	-0.1307550537548644
106	0xbfbb07e05a9f90c0	-0.10558893406374903
107	0x3fd2503497d2b613	0.28614535166238503
108	0xbff09575e502b352	-1.036489386150795
109	0xbfbecc94a71198b1	-0.12030915335489813
110	0x3fdd1966b1b0bcd5	0.4546753630883818
111	0xbfe4d3a32d2329b4	-0.6508346444691626
112	0xbfc3ed4fafda8d47	-0.15567966543776832
113	0xbff4df8a8dd9f314	-1.3045754948681791
114	0xbfd194311ff5f94a	-0.2746699154012232
115	0xbfe855ae6d1924d5	-0.7604591494392944
116	0xbfa7e8361d775f83	-0.046693507286987866
117	0x3fc7ef57c88bf428	0.18699166576689774
118	0xbff13a10886cbd33	-1.0766759232609047
119	0xbff236cd24052120	-1.1383792311699565
120	0x400e1e15aa3cc52f	3.7646897601886375
121	0xc00b126ff1220f40	-3.38400257477943
122	0x40045ff62abb6950	2.546856244892446
123	0x3fdf044ab166c6f3	0.4846369488178503
124	0x3fff6cbcd3aa996d	1.9640472667902842
125	0xbfd388a36552d6ae	-0.30521473784333863
126	0xc00385ee645e6e69	-2.4403961030309813
127	0xbff3a701238a2be2	-1.2282725704451356
128	0xc01200d598ff1f13	-4.500814810344099
129	0xbff9d3d427c5cd9a	-1.6142159989948142
130	0x400d7e96c7973aa3	3.6868110268618053
131	0xc002d165f5de3446	-2.3522452553211535
