Data/parameters.npz (npz, 1904 bytes, 2 tensors)

Theta2 f8 [13, 1]
0	0x3ffc259b126cd31a	1.759181091282875
1	0xc027c437ddbb00b2	-11.883238724782448
2	0x3fe84d904cd9fb75	0.7594682217603422
3	0x4016773e162b8dda	5.616447779091198
4	0xc02750d79de9f141	-11.657895026023313
5	0x400a38457d6eff83	3.2774762916087083
6	0x4010c97f6a008aad	4.196775108607352
7	0xc02795c59f0ffdde	-11.792523356153591
8	0x4010cf963e247ca6	4.202721568085655
9	0xc0274be73a79ebf6	-11.648248507864974
10	0x4017da222d4183b4	5.963020999072729
11	0xc01821f0073d1a9b	-6.033142197708595
12	0x401ddad1440a2dc9	7.463688910599964

Theta1 f8 [9, 12]
0	0xbfd89e3d19d8f6f8	-0.3846581222932026
1	0x403f0916410f315a	31.03549582119863
2	0xbfd82a10f12e9421	-0.37756751587795817
3	0x3fc0005fafb4e2e9	0.125011406702263
4	0x3faf6619d06f90fb	0.061325842565368625
5	0x3fc2c01c00bed30c	0.146487713207215
6	0xc0004d8f10a03fd6	-2.037870530977652
7	0xc03f3823c25e5fa2	-31.219295642891332
8	0x4001c399572e996a	2.2205073176475496
9	0xbfb00d257c188d07	-0.0627005985229979
10	0xbf9ffba822589edd	-0.031233431907962895
11	0xbf947c5bf5e632f2	-0.020005642779824258
12	0x3ff02573e633a8c7	1.009143733239897
13	0x4024c4efd3d404d0	10.38464223826523
14	0x3fd45500ecf3432a	0.3176882089583609
15	0xc014a582df38757d	-5.16163204938982
16	0xbfda14c31111e078	-0.4075172106454441
17	0x400583646207b36e	2.6891563089943054
18	0xc0136489907f4a6d	-4.848181016701898
19	0x40225a761ca6ac2b	9.17668237242295
20	0xc011f94163846c00	-4.493413500745191
21	0xbfd629e71338aeb0	-0.34630753399936065
22	0x3ff2aa73c8226452	1.166614324354914
23	0xbfe928add7f68afc	-0.786215707590912
24	0xbfe7ae542c2423ed	-0.7400303709156312
25	0xbfa4633dbea4b700	-0.039819650194074185
26	0x3fe281090404258b	0.5782513693276753
27	0x3fa21b8d8f9c0e14	0.03536646249815703
28	0x4038fbef75b279a9	24.98412261588388
29	0x3fcad1c71615edba	0.20952690676118185
30	0x3fb672c6df1b2c07	0.08768885561873684
31	0x3f937bcf84898bca	0.019026987518724593
32	0xbfb0d67b8e080a8f	-0.06577274529994724
33	0xc0391f52986d6330	-25.12235405607788
34	0xbfa5c05bf03987f1	-0.0424832087271766
35	0xbfb4ba86a9be0713	-0.0809711613092328
36	0xbfd46e31ca98d09a	-0.31922573838097323
37	0xbff6d504d6d395ed	-1.427006568113366
38	0xbfd1e4491c760c26	-0.27955844668776064
39	0xbfeee901697c3051	-0.9659430561309909
40	0x4007fa6717265961	2.99726694188864
41	0xbff2c28d475d494d	-1.1724980151817193
42	0xc008841e012b707a	-3.064510354173817
43	0xbff5155319df3bed	-1.3177062044740027
44	0xc00681fe0633ea72	-2.8134727940171667
45	0x400572ff1b95229d	2.681150641907449
46	0x3fd71cc42ba7c12c	0.3611307550736622
47	0xbfe35cbb8bab4211	-0.6050698974523262
48	0xbfd0be18d0df190a	-0.26160259626011906
49	0xbf93b9131642b320	-0.019260690911937606
50	0xbfb059aaa5b482e1	-0.06386820359740454
51	0xbfd1999d46894f81	-0.2750008763152821
52	0x3f882b09f13d3d8e	0.011800840067421683
53	0x3fa97c74969f2d12	0.049777644525955136
54	0x3fa5367a4d62729f	0.04143125719676743
55	0x3f9a9f032ce0b3f4	0.02599720918094657
56	0x3f957b2f3b068c8c	0.020977724053989052
57	0x3f6e43efac5db5af	0.003694503890918375
58	0xc02314dd9b6930b3	-9.540753227797131
59	0xc022fab8eed707ba	-9.489692176579286
60	0xbffe57b2f2bb8799	-1.8964108926524885
61	0xbfeced7c7d49cb29	-0.9039900252376799
62	0xbfc9c8aeb1af4a36	-0.20143684078228014
63	0x3ff3b8a98169035d	1.2325835280500634
64	0xbfdbb916df3925f8	-0.43317195700782873
65	0xc000bf77e3d3476c	-2.093490390668128
66	0xbfcb1459cd28d902	-0.21155855672413543
67	0xbfec179a9e1fcf59	-0.8778813446392447
68	0xbfd7d09b66d8801b	-0.37210736316228726
69	0xbfd402949ce01f12	-0.31265750236387746
70	0xbffda9dd5d642537	-1.8539708755582305
71	0x3ffce38402919cd5	1.8055458164542888
72	0x3f40c3ac6ed73886	0.0005116073568218894
73	0xbf90b3e48006407e	-0.016311235727301192
74	0x3f7afc3e9a619bca	0.0065882153922762286
75	0x3fc228650a04cd90	0.14185774792859407
76	0x3fb02861d65fa5e1	0.06311618312579227
77	0xbf90514d14c96df6	-0.015935139077880543
78	0xbf782f79f656cdb0	-0.00590465203770256
79	0x3f912df9d002fa75	0.01677694637396106
80	0x3fa3f8d2b3c0199f	0.03900774425715103
81	0xbfb6d1bdd009ea54	-0.08913790062971688
82	0x3f8b1d5439e0b744	0.013239534393587278
83	0x3fa867b626b7ac89	0.04766625616670079
84	0xbfde2a9372af15dc	-0.47134863090135837
85	0xbfd0d4faad4da950	-0.26299921917111124
86	0xbfea2e39b8a69cf7	-0.8181427580319952
87	0x4001c1100c009de1	2.219268888253041
88	0xbfa4405c766491bb	-0.03955353684640125
89	0xbffd064beb1a03bf	-1.8140372451455133
90	0x3fe03d23b685d0c4	0.5074633183380901
91	0xbfd1e12c6df48a82	-0.27936850297752625
92	0x3fdfd5bd27856e00	0.497420586199695
93	0xbfa72da03b2a1b7b	-0.04526997301314047
94	0xbfcda9efea91021c	-0.23174857095183732
95	0x3fd12e0173fe1d95	0.2684329636326422
96	0xbfe6d271f754be75	-0.7131891089138224
97	0xc00753d33c2a952a	-2.915930242585678
98	0xbff8dc21545ad521	-1.5537427229986138
99	0x40187b6ae7ca99db	6.120524999371322
100	0xbff8d4969fefc45a	-1.5519014594576874
101	0x3ff1e1041af87602	1.1174355557953963
102	0x3fce8d1eaef6f9a8	0.23868163626862082
103	0xc0039ceae905cfbb	-2.4516199307344926
104	0x3fc3867275174425	0.15254049985245036
105	0xbff427e598fa9db2	-1.2597404456845251
106	0x3ff83bd046d7577c	1.514602925036768
107	0xbff5cfd125e2ebaf	-1.3632365684449999
