Data/parameters6.npz (npz, 2288 bytes, 2 tensors)

Theta2 f8 [13, 1]
000000 33 80 19 68 5f db ce 3f d9 d5 fd 7e be 4c 10 40
       0.24106972296704185 4.074945434801941
000010 21 05 b3 b0 76 b5 24 c0 f6 a5 fa 81 04 db 24 c0
       -10.354421159604103 -10.427768766257014
000020 f6 6f 3f 23 10 7e 11 40 ca 22 95 fd 05 98 11 40
       4.373108435389431 4.398460352160962
000030 22 49 e0 b7 cf 58 23 c0 4d e1 b3 8a c5 15 21 40
       -9.673459764603255 8.542522749383943
000040 07 91 c3 5c d6 73 23 c0 0a 1b a2 32 97 74 f9 3f
       -9.726244830010286 1.5909645059452395
000050 88 19 cd 59 0b fa 20 40 fa 3a 49 e4 c4 47 f6 bf
       8.488367849623287 -1.392521754972846
000060 29 94 a3 ed 2b 9e e3 bf
       -0.6130580560098952

Theta1 f8 [13, 12]
000000 81 5c c8 fb 82 35 e4 3f 74 5d 04 dc fe 08 96 bf
       0.6315321843748195 -0.021518690279746136
000010 f0 36 f3 4d 8b 71 45 40 3c 00 59 7e 57 e2 43 c0
       42.887063735730294 -39.76829509111164
000020 37 47 51 e3 64 49 a0 3f f2 cf cd 27 03 ec aa bf
       0.03180995249625911 -0.052581881150132306
000030 5b b3 5a 8b c5 40 b0 3f 72 5b 43 55 e6 a7 af 3f
       0.06348833706097194 0.06182784834680079
000040 65 0b bb e0 d1 0d b3 bf da eb 33 78 e4 6f a4 bf
       -0.07442962395275073 -0.039916171715922835
000050 0c 79 d9 59 87 48 a8 bf 95 2e 0a 1e 6e 85 de 3f
       -0.04742835017963118 0.47689392980167017
000060 ee f1 6a 1c 75 06 21 c0 d9 38 42 e0 e6 af 05 c0
       -8.512612236075224 -2.7108895797929162
000070 a3 52 6e c9 1c 85 31 40 06 20 eb b5 ab f1 2d 40
       17.51997050231388 14.97201317305736
000080 d5 b2 c6 30 80 45 fd 3f 3e 00 a3 d3 40 55 f8 3f
       1.829467955142879 1.520813776689479
000090 19 eb 68 75 97 da a5 3f 9b a7 4a ee d1 dc e6 3f
       0.04268334682679704 0.7144555715687945
0000a0 6f c1 00 5a a8 a0 b4 3f 65 51 d3 17 db 91 e6 3f
       0.08057644078576741 0.7053046670285253
0000b0 36 78 a0 ce 46 a8 ea 3f 7d 1a aa fa 1d ea 14 40
       0.8330415759735448 5.228629986412327
0000c0 30 6c 85 3d 68 1f be 3f 36 71 21 54 c8 35 7d bf
       0.11766673566801056 -0.0071313691460910735
0000d0 09 cc 03 83 1d 0f bf 3f 78 50 15 20 6f 8d c4 bf
       0.12132439087490367 -0.16056622568669687
0000e0 fe df 41 49 ed 25 b7 3f ef d9 79 8a d2 39 b1 bf
       0.09042246855267419 -0.06728855019341727
0000f0 a2 34 e1 0c e3 8e 3e 40 13 25 6c 83 a0 c8 c5 3f
       30.55815201280769 0.17018515030967105
000100 dc 1e 18 6a f8 34 3e c0 b8 bf cd 8d 98 fa 90 3f
       -30.206915503395848 0.016580947546969788
000110 20 31 bc e1 ec 4f c6 bf a4 03 de 4c 8a c3 bf 3f
       -0.1743141271803177 0.12407745720521618
000120 cb 49 68 f3 3b 39 07 c0 de f6 06 ae 54 5b 18 c0
       -2.9029463783456086 -6.089190215277737
000130 7a f6 02 47 60 de e7 bf f0 2a b0 54 52 d2 e6 bf
       -0.7458955180115503 -0.7131740240159541
000140 39 33 03 df cd 18 f0 bf bf 60 91 47 c5 28 f3 bf
       -1.0060557090211673 -1.1974537654514703
000150 51 99 af bf 33 c1 1b 40 5e 02 b1 f5 f9 4d e6 3f
       6.938673968403536 0.6970186041508659
000160 bb 5a 4f 83 44 07 19 40 d2 c3 81 b9 b8 51 f5 bf
       6.257097293585214 -1.3324515577662521
000170 0f 7b ed a3 df 84 e1 3f d1 03 fc 0d 58 71 f8 3f
       0.5474699212753381 1.5276718660609172
000180 3d 99 06 78 3d 25 be bf 89 1f bd 77 70 a2 90 bf
       -0.11775573902432242 -0.016244656856798243
000190 3a 3e 54 d6 56 db a6 3f 59 b8 60 f9 6e 03 b0 bf
       0.04464217535325728 -0.06255239094090949
0001a0 71 bb 19 e2 17 59 c1 3f 2f 7e 7a 91 8d 2b bb bf
       0.13553141155304219 -0.10613331605645081
0001b0 c0 79 f6 3e 0a 71 bc 3f fe a2 30 14 99 87 39 40
       0.1110998538701784 25.52967954814357
0001c0 d9 05 57 5b c4 bc b5 bf 0a 0a 9c e6 c1 a9 80 bf
       -0.08491160612086136 -0.008136286592621129
0001d0 22 eb ce 61 1f 82 39 c0 b5 3c b8 3a 70 08 93 bf
       -25.508291352288445 -0.01858687742611372
0001e0 8e 84 9c 17 cd b4 e4 bf 96 b0 1a a4 61 4f 0f c0
       -0.6470704518470869 -3.913760454239376
0001f0 14 d8 99 6c 33 a9 e8 bf 73 60 79 1e ae ee e3 bf
       -0.7706544037926073 -0.6228857608030139
000200 fb e6 ac 0b 36 41 e0 3f 5e f1 78 bd f5 ab e6 3f
       0.5079603412661692 0.708491201461168
000210 72 9d f6 8f 30 f5 ed bf 30 35 76 97 30 f0 0b c0
       -0.9361803828987105 -3.492280181212344
000220 8d 83 85 23 12 c0 ea bf b8 f0 d0 b2 55 11 c6 3f
       -0.8359461492328691 0.17240401488550616
000230 6a 9a a8 96 f7 6f 0b c0 5a 51 c4 47 25 ad dd 3f
       -3.4296714563563926 0.4636929703567795
000240 06 23 45 0f 40 c8 e3 bf bf 16 7f ea 06 e0 95 3f
       -0.6181946085208387 0.021362407743956476
000250 da cd 97 d2 41 af a8 bf 09 e8 0e 82 e5 a9 b6 3f
       -0.04821210571017405 0.08852991509675702
000260 41 ce 17 06 b5 3c 24 40 8c 64 22 3e 13 08 24 c0
       10.118568601995436 -10.015771810243926
000270 56 1e b8 1a 3a e8 ab 3f 7f 0a e6 fa 97 a3 bb 3f
       0.054506126176474254 0.10796499133543057
000280 f8 0a 61 4d 6c 83 8e bf 95 56 5a 69 8b b0 b8 bf
       -0.014899107085630345 -0.09644385645000349
000290 56 f7 cc db 1a 49 b7 bf 3c e0 e5 53 71 e2 e1 bf
       -0.09095924249865325 -0.5588919294959918
0002a0 3a e2 b0 b0 58 29 e6 bf 04 9b 0b 87 07 ad f4 bf
       -0.6925471735949664 -1.2922435069282878
0002b0 91 39 fa 2f 23 ba e7 bf cf 36 d4 29 0f 49 e6 bf
       -0.7414718567904847 -0.6964183632823849
0002c0 0e 41 6a ac 5e 95 ff bf f2 0a 3f 57 16 14 fd bf
       -1.9739672408068745 -1.8174041183526097
0002d0 82 2e e3 26 04 51 e2 bf ce 19 a8 e8 15 37 df 3f
       -0.5723896750946127 0.4877371570622956
0002e0 62 3c 7b d7 60 df e0 bf 1a 56 87 7d 68 22 f0 bf
       -0.5272678574200536 -1.0084004310095964
0002f0 ed 54 de da dc 1c dd 3f f7 83 64 b9 f4 84 c3 3f
       0.4548866402995618 0.15249499370932515
000300 58 e1 10 83 b2 61 45 3f 45 3d 04 a6 b3 25 8a 3f
       0.0006525155678281198 0.012767222885058724
000310 34 d4 6b ad 99 25 96 3f d5 ba 71 55 9f df 74 bf
       0.02162780877093358 -0.005096075437093635
000320 2a ec 06 6b b1 00 af 3f c5 f9 68 68 dc 96 b4 bf
       0.06055216247065005 -0.08042695569108733
000330 4d 21 2a 7e 06 6f 88 3f 8e e2 8b 07 c4 70 a8 3f
       0.011930514073598042 0.047735334321207565
000340 6c e9 3d 0f c3 1a a1 bf 7b 02 5e 6f f1 a6 a7 3f
       -0.03340730248506216 0.046195549816734315
000350 9c c1 3f 2c 08 f4 a1 bf c9 97 81 31 e4 50 a7 3f
       -0.035064940835471264 0.0455390272552872
000360 55 d5 5f b5 5d 53 d7 bf d1 13 5c 39 15 1c d0 bf
       -0.36446325981463207 -0.25171404458552354
000370 ff 28 7f 3e c4 da bd bf 8a ef 9b ec 4d 6b be bf
       -0.11661936307715236 -0.1188248350771898
000380 d4 39 4f 8e cd fa e0 bf 36 c0 a8 64 f0 84 e1 bf
       -0.5306155948144871 -0.5474779096603075
000390 45 43 6a 91 14 9c c6 bf de 75 fa 6f 94 50 bc 3f
       -0.17663819408746853 0.11060455068442063
0003a0 db 5f 01 ab ef 90 c7 bf d1 5c 20 ed 62 8e f7 bf
       -0.18411060190078285 -1.4722623121977458
0003b0 4b af 61 61 93 f6 bc 3f 15 90 ca 86 3b 41 c9 3f
       0.11313744666557317 0.19730323869328062
0003c0 f6 76 42 b5 85 b4 a2 bf 14 f4 9a b4 56 52 76 bf
       -0.036533525825900456 -0.005449618047063804
0003d0 d8 19 4f 6c d2 7a c1 3f e5 71 fa 4f 04 19 b0 bf
       0.1365607289173585 -0.06288172676654076
0003e0 b7 56 cf 1e 84 db 95 bf b1 97 d4 d4 7b 84 98 3f
       -0.02134519994782266 0.023942885270251405
0003f0 bc ed 65 ca b2 cd b0 3f 3a 13 29 24 77 0e b2 3f
       0.0656387085090761 0.07053322441886403
000400 7a ca 79 21 ec e8 ae bf 65 ca 8f 74 a2 a3 98 bf
       -0.060370806776423216 -0.024061716427193142
000410 45 9c 52 78 2e b5 bd bf e0 84 d2 fe 78 b5 87 bf
       -0.11604586064878315 -0.011576600338516874
000420 cb ea aa 9d 0a bb ce 3f 5a 31 2d 36 a0 be 93 3f
       0.24008305262198912 0.019281867319749103
000430 fa 53 0e 7d f8 d7 b2 bf 6a f4 58 e6 a0 34 a5 bf
       -0.07360795071720352 -0.041417148703182985
000440 66 f6 f3 c2 46 f7 e3 bf e4 b8 11 43 9e 98 e3 bf
       -0.6239351089167939 -0.6123801526971673
000450 db 4b f2 05 5c ee b2 bf f0 22 82 7b c9 e9 a1 3f
       -0.07394957680871476 0.03498677857084498
000460 fe d6 5e d6 19 80 af bf 57 d7 cc 8c a5 f3 e4 bf
       -0.06152420751406672 -0.6547420263293401
000470 bb c1 8a f8 31 a4 51 bf 21 c9 93 c1 9b 74 b3 bf
       -0.0010767448422194087 -0.07599805332191469
000480 0e 91 4b d6 8f 1f 18 40 91 90 4a 36 21 f5 05 40
       6.030822132456036 2.744692253256354
000490 f5 b0 11 ec ec 31 13 c0 c7 31 6a 7e 97 1f 0f c0
       -4.798755348758495 -3.890425670257375
0004a0 52 a2 43 44 32 1d 05 40 b7 2f 63 f4 f5 e8 05 40
       2.6392560322895315 2.7387503712434085
0004b0 80 87 e3 4f ca d1 06 c0 83 70 e9 f9 5b c6 f9 3f
       -2.8524366608916694 1.610927559107069
0004c0 07 b8 2c 04 73 cb 03 c0 88 f1 4b 55 77 3e c4 bf
       -2.474340469946586 -0.15815631546855635
0004d0 10 d3 e7 18 28 ab fe 3f cd 3c 65 a8 22 4c 10 c0
       1.9167862866281133 -4.07435095899491
